gui/web_gui/sitetest2/saved_model.pkl_05.npy (npy, 3760 bytes, 1 tensors)

array f8 [20, 23]
00000000: 610e f6f1 c085 e83f 1103 8c87 ab4a ea3f
00000010: c16a 16e4 a053 efbf 0000 0000 0000 f03f
00000020: 0071 3d08 013d e9bf 7d78 8d3f 39b9 eebf
00000030: ee87 c628 df9a ebbf 3a2c c6aa 0d64 e83f
00000040: 0000 0000 0000 f0bf fdab 6ce8 25e3 eabf
00000050: 0000 0000 0000 f0bf fb63 68d4 08e9 eabf
00000060: e2b2 ac0e 0950 eebf 8ae2 5641 6b89 dbbf
00000070: 31e2 a371 5e55 eabf 1abf 6360 6e09 eebf
00000080: 6817 8a7b 7223 e1bf 9fe2 9221 5847 cbbf
00000090: a19b 4e4e 7db0 eebf 0000 0000 0000 f0bf
000000a0: 0b5f 6e88 01e9 e8bf 8484 f726 be94 e5bf
000000b0: e07f b10a 03d2 edbf e611 1786 9a34 d43f
000000c0: 9804 3403 0272 cc3f f2bc a9aa f9cd e0bf
000000d0: bfb8 fd8f 40a9 cd3f 3bae 716e 7fac bc3f
000000e0: 108e bb60 9c93 e9bf d8d4 1a6c b1d5 d3bf
000000f0: d825 6740 3377 d93f 0000 0000 0000 f0bf
00000100: 9c49 591e fd34 e8bf 0000 0000 0000 f0bf
00000110: f088 9b78 5a1d e1bf 2376 1149 9e5b e8bf
00000120: 273b 9613 94e4 e3bf 8240 e7ea 6b3a 90bf
00000130: 8d35 7693 1940 eabf b577 759b 7b0c e03f
00000140: f987 bead 015e b03f 33c3 027f fb71 e6bf
00000150: 0000 0000 0000 f0bf 8aea 4123 effc e5bf
00000160: 414c d3b9 aade e9bf 18ac ea06 a030 dfbf
00000170: ca37 b36b d061 ebbf db3f 5940 504d 993f
00000180: 5697 29aa 8fd6 df3f 4572 82ea 6c6e e53f
00000190: 425b ed66 ca84 b73f 5e04 8615 3933 d0bf
000001a0: d732 1beb 5406 e53f 6938 0730 ddb3 dabf
000001b0: 5f42 7b09 ed25 e4bf af6d 75ae 1a6f bfbf
000001c0: 6666 6666 6666 e6bf f79f 06b3 e041 cabf
000001d0: df56 3383 dda7 d73f 0000 0000 0000 f03f
000001e0: 1f1c ef3a 586c e6bf a93e 505c ff57 c1bf
000001f0: 61ef 9d70 98b6 ebbf d239 3450 c47f d6bf
00000200: db1c 4dea 738a e2bf 4a9c 21a4 83ed c8bf
00000210: 148c 725b 3a10 d73f 4481 f7e4 3a23 d1bf
00000220: 8fef f773 6f58 d5bf 6bde 454d eec5 d5bf
00000230: 6ede 1624 8e15 dabf 0bda 1f3d e3d6 c9bf
00000240: 530e dd06 1b87 d8bf 04e6 b723 4966 e4bf
00000250: 2b24 1de9 a16a e93f 90eb d93b dd19 e83f
00000260: bd03 4200 5423 eabf 0000 0000 0000 f0bf
00000270: e1f7 2087 8d0a d63f cdcc cccc cccc ecbf
00000280: b336 8d2a 4276 e63f 2c8d da83 3486 ea3f
00000290: fd8b 5e96 6f21 debf 1333 0880 4498 c13f
000002a0: 4c41 c574 9980 dd3f 468e e950 cc0a b5bf
000002b0: 52ec eaf1 ce7d e33f 3d8f afb8 d16b c23f
000002c0: db31 ef2d 3e89 e33f 7ed3 5df3 0c61 d4bf
000002d0: 458b c0ad db82 d23f c7ee e524 a7c9 e03f
000002e0: 0ea2 dbab 1a68 d8bf ebf4 5013 cee5 cfbf
000002f0: 9c2f b5be afa2 c2bf 610b 12a0 2934 cabf
00000300: 8994 3369 1812 d3bf 49fa fb2c 6c4b de3f
00000310: 3929 fd74 d104 e63f d5db 3aa5 7f6c e7bf
00000320: 26b4 97d0 5e42 ebbf 4e8d 40db 85bf c23f
00000330: 3333 3333 3333 d3bf 680a 1247 12ce e13f
00000340: 0000 0000 0000 f03f e630 c4f4 8ce2 d3bf
00000350: 3e0e 517c 3a99 483f ef70 a9e8 0bf9 cc3f
00000360: f151 41df 4fe8 cebf 8e6c 14cd 313a d03f
00000370: 3492 64e7 e423 81bf 3f97 62d0 2c30 da3f
00000380: e478 f386 558a c5bf e79d d91d 01b0 be3f
00000390: 4c7f 983c 11a6 d33f 83f5 731f e637 ebbf
000003a0: dcb7 9785 4737 b33f 0000 0000 0000 f03f
000003b0: 50ca b1f2 1f27 eb3f d2ac a75d 8cce df3f
000003c0: 7aa7 8f02 c455 d8bf d18e 2db9 4386 e03f
000003d0: 0f33 f852 d366 a7bf 0000 0000 0000 f0bf
000003e0: 6da0 c994 38d8 debf 0000 0000 0000 f0bf
000003f0: e92f ca28 e7e4 d9bf 2895 ac76 d0ee 8fbf
00000400: ed62 a296 0a1b ef3f e3c2 7521 dd5c e7bf
00000410: 813c d976 3b08 d3bf 0000 0000 0000 f0bf
00000420: d303 0fd7 ee77 eabf 69e1 54fe 78a7 e1bf
00000430: a834 92a3 fcd5 e2bf a331 bfdd 9795 b63f
00000440: 08f0 0a3c f837 e6bf c638 0a9b b1bb e0bf
00000450: 58c6 634e 87a7 e0bf 07ab 35e5 d7ba cd3f
00000460: c2e8 77d1 a34a c13f 0422 ec9f a3b9 e03f
00000470: 6bd9 07da 9c1d debf 0254 0b1e ca01 bbbf
00000480: 50ce cb23 2b17 dd3f 5064 a4ae f975 d2bf
00000490: 2fa1 bd84 f612 dabf bdb7 6242 a290 cfbf
000004a0: 9a99 9999 9999 d93f 3e92 92b2 f426 b53f
000004b0: 9efc b46f 30ab d63f 6659 f39d f93d d73f
000004c0: d0d1 264e e44c e3bf cd52 fcb9 23eb c6bf
000004d0: fa1a 8e68 71f2 cebf 70ac 7f5f 00dc c1bf
000004e0: 9964 fac8 5c71 e2bf 1f01 0e2f 4cb8 efbf
000004f0: 7b56 d42d 977c c1bf 8d17 809e f736 d83f
00000500: dbc6 f8b5 a0fa dabf 4fdb b20c 2105 b4bf
00000510: d70a 4adc 4ce5 ebbf c6e5 2131 19d1 bdbf
00000520: 0142 fc00 a3d6 edbf 0000 0000 0000 f0bf
00000530: aeab 8fa9 68b1 ea3f f894 9602 472f e93f
00000540: 0000 0000 0000 f0bf 0000 0000 0000 f0bf
00000550: 0000 0000 0000 f03f 0000 0000 0000 f0bf
00000560: 0000 0000 0000 f03f 4133 11f3 de00 e43f
00000570: 2fca dccf b594 efbf c0b9 716a ebb3 ee3f
00000580: 0000 0000 0000 f03f 080c 5865 4df3 a23f
00000590: 19a6 e3af b2a4 ea3f a1ae 3287 ddca eb3f
000005a0: 0b05 bfd3 56bd ee3f 4f23 2cf7 34c2 e6bf
000005b0: 0746 debb 2c6b bd3f 0000 0000 0000 f03f
000005c0: 1ef3 bf08 a91a d43f 2289 614f 8ab5 c43f
000005d0: 0000 0000 0000 f0bf 751d 0c21 f6f4 e13f
000005e0: 3fe5 03ec 38ed ebbf f275 708e bc2b d8bf
000005f0: bb66 499c 4db6 acbf 327f 9911 256b d2bf
00000600: 0000 0000 0000 f0bf fe8b fbae 9c4d d63f
00000610: 0000 0000 0000 f0bf ce51 4457 76be c6bf
00000620: 37f4 bb0f 7474 e5bf 50fc bf9b 5689 e0bf
00000630: ff39 d4f9 1c67 a7bf 6d65 d920 f7a4 c0bf
00000640: 23a3 e4b3 7a5c dd3f 0000 0000 0000 f03f
00000650: 5615 e4e9 562d ddbf 0000 0000 0000 f0bf
00000660: 7d7d ae91 b4f8 e5bf f39e 9eea 950e db3f
00000670: cfb3 6e3b 99cd d4bf aa7c 7891 45fc b7bf
00000680: afd3 7039 3714 a83f 5548 55a7 436b d3bf
00000690: 446c c0f9 389d ddbf b837 f705 b3af edbf
000006a0: 0000 0000 0000 f03f e6b1 2840 64d6 e53f
000006b0: b364 a2e3 e7d1 e8bf 13da 4b68 2fa1 edbf
000006c0: a6b2 2a63 d617 9bbf 3333 3333 3333 e3bf
000006d0: cba9 6006 1b2f cc3f 176b 9621 be31 d93f
000006e0: 0353 31f5 bdab d2bf 4e02 44d3 f244 d7bf
000006f0: a5a4 fc0d 9b24 c23f f91b b676 4d8d cfbf
00000700: cf6b 5ca9 28ac ca3f b47c 0ea5 38b5 b5bf
00000710: 0000 0000 0000 f0bf 6365 06d5 464c d7bf
00000720: 0000 0000 0000 f03f 6cb8 cdd1 deae c33f
00000730: d516 3804 4254 a7bf 0000 0000 0000 f0bf
00000740: b256 4d79 51ad 953f 0000 0000 0000 f0bf
00000750: 0f28 11e6 6cca e8bf ffdc 33c1 c8dc e83f
00000760: 631e 2770 8d37 ed3f 5573 81b8 46bd eebf
00000770: 0000 0000 0000 f0bf 8c3c 1e98 9715 e73f
00000780: 0000 0000 0000 f0bf 70b5 6ac5 69ba ed3f
00000790: 2e7f 4e60 71b9 e83f 0000 0000 0000 f0bf
000007a0: 0000 0000 0000 f03f e475 3fa2 060f ec3f
000007b0: 01e2 aca6 9bda ba3f 1de4 0269 6a63 e63f
000007c0: 0000 0000 0000 f03f 0000 0000 0000 f03f
000007d0: 0743 2476 8fb2 eabf 3a63 1884 753b ac3f
000007e0: 76f3 bad9 a1a0 ee3f 7639 9e8a 0c94 e8bf
000007f0: 93b0 a351 7006 ca3f cd2c 8f7f fec1 b9bf
0.7663273549846502 0.8216149947548691 -0.9789585547290117 1.0 -0.7886967812478645 -0.9601103059064965 -0.8626552387615882 0.7622135482246286
-1.0 -0.8402280368367198 -1.0 -0.8409465931500785 -0.9472699438680048 -0.4302623880462667 -0.8229210109266828 -0.9386512644395879
-0.5355770504836359 -0.21311475409836064 -0.959044125503045 -1.0 -0.7784431137724551 -0.6744070778915021 -0.931886216054405 0.3157106694673345
0.22222924381643305 -0.5251434643995749 0.23172766714873735 0.11200710722339917 -0.7992689027127557 -0.3099177890502012 0.39790040292117856 -1.0
-0.7564683525800322 -1.0 -0.5348331790558216 -0.7611838748086409 -0.6216526396327468 -0.01584786053882726 -0.820324695597877 0.5015237842851464
0.06393442622950819 -0.7014138680152427 -1.0 -0.687125748502994 -0.8084310178186415 -0.48734284091432434 -0.8556902030484193 0.024708990027931903
0.49747077577045695 0.6697296695961731 0.09186997425909474 -0.2531264028730841 0.6570229141157949 -0.4172280282044825 -0.6296296296296297 -0.12278906592603421
-0.7 -0.20513542882440536 0.36962068378976015 1.0 -0.7007256651930936 -0.13549797065251326 -0.8660394858884325 -0.35154826958105645
-0.5794009758182271 -0.19474835886214442 0.3603654759446624 -0.26777527198830264 -0.33352266621636145 -0.3402057413690957 -0.40756562733029156 -0.2018703506907545
-0.38324618978751807 -0.6374860475181667 0.7942666581158212 0.7531572503061046 -0.8168125157391085 -1.0 0.3443940944306388 -0.9
0.7019358473860023 0.8288824630039122 -0.4707907646608758 0.13745933772624905 0.46097408679363094 -0.0821960160770284 0.6091074681238615 0.1439153816019089
0.6105032822757112 -0.31842349783192236 0.2892369458005997 0.524615833346126 -0.3813540151882372 -0.24920059149909632 -0.14558979808714134 -0.2047168761820002
-0.2979794528349165 0.4733534278201757 0.6880881581248907 -0.731994459833795 -0.8518518518518519 0.14646981435462653 -0.3 0.5564051998229163
1.0 -0.31070255187002116 0.0007506881307865543 0.22635029659694036 -0.24146459962015812 0.253551912568306 -0.008369243918942983 0.40919037199124725
-0.16828412141234772 0.11987311342965477 0.307010945487481 -0.8505735983195993 0.07506224643267906 1.0 0.848525976193125 0.49698170801157204
-0.38023472070801 0.5163897148854294 -0.045706371191135735 -1.0 -0.48194708375968426 -1.0 -0.404596128305228 -0.015592220899245904
0.9720509473873712 -0.7300859120860789 -0.297377458632532 -1.0 -0.8271402550091075 -0.5516934363759393 -0.5886214442013129 0.08822011150113566
-0.694332234641025 -0.5229118373988733 -0.5204502612161361 0.23226450626255987 0.1350903294367694 0.5226610301479586 -0.47055741588646666 -0.10549605592252934
0.45453909393038305 -0.2884506421556283 -0.4074074074074074 -0.2466013740681187 0.4 0.08262566909486055 0.35419855984577875 0.3631576578603898
-0.6031362081908416 -0.1790508897908211 -0.2417737732432313 -0.1395264116575592 -0.5763381886819331 -0.9912472647702407 -0.13661470163122033 0.37835493544150084
-0.4215471055095869 -0.07820326385522701 -0.8717407515071852 -0.11647183846971307 -0.9324507731672044 -1.0 0.8341563522093247 0.7870211649466503
-1.0 -1.0 1.0 -1.0 1.0 0.6251063105970404 -0.9869031009496377 0.9594628409375261
1.0 0.037012499447904246 0.8326047358834244 0.8685138359628192 0.9606126914660832 -0.7112068965517241 0.11491660677554459 1.0
0.3141272149512576 0.16179016948724106 -1.0 0.5611525197463566 -0.872707806555958 -0.3776694670685564 -0.0560783627776806 -0.28778959959707884
-1.0 0.3484870632948399 -1.0 -0.17768744717672152 -0.6704654986675739 -0.5167649309149827 -0.0457085661856702 -0.1300343428036216
0.4587694889801687 1.0 -0.455892303856975 -1.0 -0.6866095395416064 0.42276523506232805 -0.32504874042461734 -0.09369311143426509
0.047029233705337396 -0.30342189160467586 -0.46272110357103124 -0.9276976696507893 1.0 0.6824208500962043 -0.775623268698061 -0.9259259259259259
-0.026458120157871655 -0.6 0.22018754779249003 0.3936610534671429 -0.2917323011836716 -0.36358328467762113 0.1417421167655323 -0.24649971291020714
0.20837887067395264 -0.08479646711065209 -1.0 -0.36403055957051417 1.0 0.15377412075344254 -0.045564711585070285 -1.0
0.02116896918172157 -1.0 -0.7747101300713001 0.7769511960495094 0.9130313101276893 -0.9606050113321581 -1.0 0.7213857623154509
-1.0 0.929005513744114 0.7726370697964506 -1.0 1.0 0.8768342179206994 0.10489819354268805 0.6996357012750455
1.0 1.0 -0.8342969233945902 0.05514113652697579 0.9571084263367158 -0.7680723864921635 0.20332149492549387 -0.1006163655685441
